…
I1109 10:46:09.750962 18939 net.cpp:294] The NetState phase (0) differed from the phase (1) specified by a rule in layer data
I1109 10:46:09.750982 18939 net.cpp:294] The NetState phase (0) differed from the phase (1) specified by a rule in layer accuracy
I1109 10:46:09.751168 18939 net.cpp:51] Initializing net from parameters: 
name: "CaffeNet"
state {
  phase: TRAIN
  level: 0
  stage: ""
}
layer {
  name: "data"
  type: "Data"
  top: "data"
  top: "label"
  include {
    phase: TRAIN
  }
  transform_param {
    mirror: true
    crop_size: 227
  }
  data_param {
    source: "../../data/train_lmdb"
    batch_size: 256
    backend: LMDB
  }
}
layer {
  name: "conv1"
  type: "Convolution"
  bottom: "data"
  top: "conv1"
  param {
    lr_mult: 1
    decay_mult: 1
  }
  param {
    lr_mult: 2
    decay_mult: 0
  }
  convolution_param {
    num_output: 96
    kernel_size: 11
    stride: 4
    weight_filler {
      type: "gaussian"
      std: 0.01
    }
    bias_filler {
      type: "constant"
      value: 0
    }
  }
}
layer {
  name: "relu1"
  type: "ReLU"
  bottom: "conv1"
  top: "conv1"
}
layer {
  name: "pool1"
  type: "Pooling"
  bottom: "conv1"
  top: "pool1"
  pooling_param {
    pool: MAX
    kernel_size: 3
    stride: 2
  }
}
layer {
  name: "norm1"
  type: "LRN"
  bottom: "pool1"
  top: "norm1"
  lrn_param {
    local_size: 5
    alpha: 0.0001
    beta: 0.75
  }
}
layer {
  name: "conv2"
  type: "Convolution"
  bottom: "norm1"
  top: "conv2"
  param {
    lr_mult: 1
    decay_mult: 1
  }
  param {
    lr_mult: 2
    decay_mult: 0
  }
  convolution_param {
    num_output: 256
    pad: 2
    kernel_size: 5
    group: 2
    weight_filler {
      type: "gaussian"
      std: 0.01
    }
    bias_filler {
      type: "constant"
      value: 1
    }
  }
}
layer {
  name: "relu2"
  type: "ReLU"
  bottom: "conv2"
  top: "conv2"
}
layer {
  name: "pool2"
  type: "Pooling"
  bottom: "conv2"
  top: "pool2"
  pooling_param {
    pool: MAX
    kernel_size: 3
    stride: 2
  }
}
layer {
  name: "norm2"
  type: "LRN"
  bottom: "pool2"
  top: "norm2"
  lrn_param {
    local_size: 5
    alpha: 0.0001
    beta: 0.75
  }
}
layer {
  name: "conv3"
  type: "Convolution"
  bottom: "norm2"
  top: "conv3"
  param {
    lr_mult: 1
    decay_mult: 1
  }
  param {
    lr_mult: 2
    decay_mult: 0
  }
  convolution_param {
    num_output: 384
    pad: 1
    kernel_size: 3
    weight_filler {
      type: "gaussian"
      std: 0.01
    }
    bias_filler {
      type: "constant"
      value: 0
    }
  }
}
layer {
  name: "relu3"
  type: "ReLU"
  bottom: "conv3"
  top: "conv3"
}
layer {
  name: "conv4"
  type: "Convolution"
  bottom: "conv3"
  top: "conv4"
  param {
    lr_mult: 1
    decay_mult: 1
  }
  param {
    lr_mult: 2
    decay_mult: 0
  }
  convolution_param {
    num_output: 384
    pad: 1
    kernel_size: 3
    group: 2
    weight_filler {
      type: "gaussian"
      std: 0.01
    }
    bias_filler {
      type: "constant"
      value: 1
    }
  }
}
layer {
  name: "relu4"
  type: "ReLU"
  bottom: "conv4"
  top: "conv4"
}
layer {
  name: "conv5"
  type: "Convolution"
  bottom: "conv4"
  top: "conv5"
  param {
    lr_mult: 1
    decay_mult: 1
  }
  param {
    lr_mult: 2
    decay_mult: 0
  }
  convolution_param {
    num_output: 256
    pad: 1
    kernel_size: 3
    group: 2
    weight_filler {
      type: "gaussian"
      std: 0.01
    }
    bias_filler {
      type: "constant"
      value: 1
    }
  }
}
layer {
  name: "relu5"
  type: "ReLU"
  bottom: "conv5"
  top: "conv5"
}
layer {
  name: "pool5"
  type: "Pooling"
  bottom: "conv5"
  top: "pool5"
  pooling_param {
    pool: MAX
    kernel_size: 3
    stride: 2
  }
}
layer {
  name: "fc6"
  type: "InnerProduct"
  bottom: "pool5"
  top: "fc6"
  param {
    lr_mult: 1
    decay_mult: 1
  }
  param {
    lr_mult: 2
    decay_mult: 0
  }
  inner_product_param {
    num_output: 4096
    weight_filler {
      type: "gaussian"
      std: 0.005
    }
    bias_filler {
      type: "constant"
      value: 1
    }
  }
}
layer {
  name: "relu6"
  type: "ReLU"
  bottom: "fc6"
  top: "fc6"
}
layer {
  name: "drop6"
  type: "Dropout"
  bottom: "fc6"
  top: "fc6"
  dropout_param {
    dropout_ratio: 0.5
  }
}
layer {
  name: "fc7"
  type: "InnerProduct"
  bottom: "fc6"
  top: "fc7"
  param {
    lr_mult: 1
    decay_mult: 1
  }
  param {
    lr_mult: 2
    decay_mult: 0
  }
  inner_product_param {
    num_output: 4096
    weight_filler {
      type: "gaussian"
      std: 0.005
    }
    bias_filler {
      type: "constant"
      value: 1
    }
  }
}
layer {
  name: "relu7"
  type: "ReLU"
  bottom: "fc7"
  top: "fc7"
}
layer {
  name: "drop7"
  type: "Dropout"
  bottom: "fc7"
  top: "fc7"
  dropout_param {
    dropout_ratio: 0.5
  }
}
layer {
  name: "my-fc8"
  type: "InnerProduct"
  bottom: "fc7"
  top: "my-fc8"
  param {
    lr_mult: 1
    decay_mult: 1
  }
  param {
    lr_mult: 2
    decay_mult: 0
  }
  inner_product_param {
    num_output: 196
    weight_filler {
      type: "gaussian"
      std: 0.01
    }
    bias_filler {
      type: "constant"
      value: 0
    }
  }
}
layer {
  name: "loss"
  type: "SoftmaxWithLoss"
  bottom: "my-fc8"
  bottom: "label"
  top: "loss"
}
I1109 10:46:09.751289 18939 layer_factory.hpp:77] Creating layer data
I1109 10:46:09.751425 18939 db_lmdb.cpp:35] Opened lmdb ../../data/train_lmdb
I1109 10:46:09.751452 18939 net.cpp:84] Creating Layer data
I1109 10:46:09.751461 18939 net.cpp:380] data -> data
I1109 10:46:09.751485 18939 net.cpp:380] data -> label
I1109 10:46:09.754618 18939 data_layer.cpp:45] output data size: 256,3,227,227
I1109 10:46:10.210319 18939 net.cpp:122] Setting up data
I1109 10:46:10.210422 18939 net.cpp:129] Top shape: 256 3 227 227 (39574272)
I1109 10:46:10.210448 18939 net.cpp:129] Top shape: 256 (256)
I1109 10:46:10.210469 18939 net.cpp:137] Memory required for data: 158298112
I1109 10:46:10.210497 18939 layer_factory.hpp:77] Creating layer conv1
I1109 10:46:10.210544 18939 net.cpp:84] Creating Layer conv1
I1109 10:46:10.210566 18939 net.cpp:406] conv1 <- data
I1109 10:46:10.210598 18939 net.cpp:380] conv1 -> conv1
I1109 10:46:10.770617 18939 net.cpp:122] Setting up conv1
I1109 10:46:10.770668 18939 net.cpp:129] Top shape: 256 96 55 55 (74342400)
I1109 10:46:10.770674 18939 net.cpp:137] Memory required for data: 455667712
I1109 10:46:10.770712 18939 layer_factory.hpp:77] Creating layer relu1
I1109 10:46:10.770740 18939 net.cpp:84] Creating Layer relu1
I1109 10:46:10.770750 18939 net.cpp:406] relu1 <- conv1
I1109 10:46:10.770758 18939 net.cpp:367] relu1 -> conv1 (in-place)
I1109 10:46:10.771072 18939 net.cpp:122] Setting up relu1
I1109 10:46:10.771083 18939 net.cpp:129] Top shape: 256 96 55 55 (74342400)
I1109 10:46:10.771088 18939 net.cpp:137] Memory required for data: 753037312
I1109 10:46:10.771093 18939 layer_factory.hpp:77] Creating layer pool1
I1109 10:46:10.771104 18939 net.cpp:84] Creating Layer pool1
I1109 10:46:10.771109 18939 net.cpp:406] pool1 <- conv1
I1109 10:46:10.771117 18939 net.cpp:380] pool1 -> pool1
I1109 10:46:10.771198 18939 net.cpp:122] Setting up pool1
I1109 10:46:10.771209 18939 net.cpp:129] Top shape: 256 96 27 27 (17915904)
I1109 10:46:10.771212 18939 net.cpp:137] Memory required for data: 824700928
I1109 10:46:10.771219 18939 layer_factory.hpp:77] Creating layer norm1
I1109 10:46:10.771232 18939 net.cpp:84] Creating Layer norm1
I1109 10:46:10.771237 18939 net.cpp:406] norm1 <- pool1
I1109 10:46:10.771245 18939 net.cpp:380] norm1 -> norm1
I1109 10:46:10.771497 18939 net.cpp:122] Setting up norm1
I1109 10:46:10.771508 18939 net.cpp:129] Top shape: 256 96 27 27 (17915904)
I1109 10:46:10.771513 18939 net.cpp:137] Memory required for data: 896364544
I1109 10:46:10.771546 18939 layer_factory.hpp:77] Creating layer conv2
I1109 10:46:10.771565 18939 net.cpp:84] Creating Layer conv2
I1109 10:46:10.771570 18939 net.cpp:406] conv2 <- norm1
I1109 10:46:10.771579 18939 net.cpp:380] conv2 -> conv2
I1109 10:46:10.780644 18939 net.cpp:122] Setting up conv2
I1109 10:46:10.780707 18939 net.cpp:129] Top shape: 256 256 27 27 (47775744)
I1109 10:46:10.780714 18939 net.cpp:137] Memory required for data: 1087467520
I1109 10:46:10.780745 18939 layer_factory.hpp:77] Creating layer relu2
I1109 10:46:10.780762 18939 net.cpp:84] Creating Layer relu2
I1109 10:46:10.780769 18939 net.cpp:406] relu2 <- conv2
I1109 10:46:10.780782 18939 net.cpp:367] relu2 -> conv2 (in-place)
I1109 10:46:10.781148 18939 net.cpp:122] Setting up relu2
I1109 10:46:10.781158 18939 net.cpp:129] Top shape: 256 256 27 27 (47775744)
I1109 10:46:10.781163 18939 net.cpp:137] Memory required for data: 1278570496
I1109 10:46:10.781168 18939 layer_factory.hpp:77] Creating layer pool2
I1109 10:46:10.781178 18939 net.cpp:84] Creating Layer pool2
I1109 10:46:10.781183 18939 net.cpp:406] pool2 <- conv2
I1109 10:46:10.781191 18939 net.cpp:380] pool2 -> pool2
I1109 10:46:10.781262 18939 net.cpp:122] Setting up pool2
I1109 10:46:10.781271 18939 net.cpp:129] Top shape: 256 256 13 13 (11075584)
I1109 10:46:10.781276 18939 net.cpp:137] Memory required for data: 1322872832
I1109 10:46:10.781281 18939 layer_factory.hpp:77] Creating layer norm2
I1109 10:46:10.781296 18939 net.cpp:84] Creating Layer norm2
I1109 10:46:10.781301 18939 net.cpp:406] norm2 <- pool2
I1109 10:46:10.781307 18939 net.cpp:380] norm2 -> norm2
I1109 10:46:10.782172 18939 net.cpp:122] Setting up norm2
I1109 10:46:10.782200 18939 net.cpp:129] Top shape: 256 256 13 13 (11075584)
I1109 10:46:10.782207 18939 net.cpp:137] Memory required for data: 1367175168
I1109 10:46:10.782213 18939 layer_factory.hpp:77] Creating layer conv3
I1109 10:46:10.782234 18939 net.cpp:84] Creating Layer conv3
I1109 10:46:10.782240 18939 net.cpp:406] conv3 <- norm2
I1109 10:46:10.782251 18939 net.cpp:380] conv3 -> conv3
I1109 10:46:10.796916 18939 net.cpp:122] Setting up conv3
I1109 10:46:10.796960 18939 net.cpp:129] Top shape: 256 384 13 13 (16613376)
I1109 10:46:10.796967 18939 net.cpp:137] Memory required for data: 1433628672
I1109 10:46:10.796989 18939 layer_factory.hpp:77] Creating layer relu3
I1109 10:46:10.797003 18939 net.cpp:84] Creating Layer relu3
I1109 10:46:10.797010 18939 net.cpp:406] relu3 <- conv3
I1109 10:46:10.797020 18939 net.cpp:367] relu3 -> conv3 (in-place)
I1109 10:46:10.797580 18939 net.cpp:122] Setting up relu3
I1109 10:46:10.797595 18939 net.cpp:129] Top shape: 256 384 13 13 (16613376)
I1109 10:46:10.797600 18939 net.cpp:137] Memory required for data: 1500082176
I1109 10:46:10.797605 18939 layer_factory.hpp:77] Creating layer conv4
I1109 10:46:10.797621 18939 net.cpp:84] Creating Layer conv4
I1109 10:46:10.797627 18939 net.cpp:406] conv4 <- conv3
I1109 10:46:10.797636 18939 net.cpp:380] conv4 -> conv4
I1109 10:46:10.809860 18939 net.cpp:122] Setting up conv4
I1109 10:46:10.809901 18939 net.cpp:129] Top shape: 256 384 13 13 (16613376)
I1109 10:46:10.809907 18939 net.cpp:137] Memory required for data: 1566535680
I1109 10:46:10.809926 18939 layer_factory.hpp:77] Creating layer relu4
I1109 10:46:10.809960 18939 net.cpp:84] Creating Layer relu4
I1109 10:46:10.809967 18939 net.cpp:406] relu4 <- conv4
I1109 10:46:10.809978 18939 net.cpp:367] relu4 -> conv4 (in-place)
I1109 10:46:10.810461 18939 net.cpp:122] Setting up relu4
I1109 10:46:10.810472 18939 net.cpp:129] Top shape: 256 384 13 13 (16613376)
I1109 10:46:10.810477 18939 net.cpp:137] Memory required for data: 1632989184
I1109 10:46:10.810482 18939 layer_factory.hpp:77] Creating layer conv5
I1109 10:46:10.810497 18939 net.cpp:84] Creating Layer conv5
I1109 10:46:10.810503 18939 net.cpp:406] conv5 <- conv4
I1109 10:46:10.810511 18939 net.cpp:380] conv5 -> conv5
I1109 10:46:10.819864 18939 net.cpp:122] Setting up conv5
I1109 10:46:10.819905 18939 net.cpp:129] Top shape: 256 256 13 13 (11075584)
I1109 10:46:10.819962 18939 net.cpp:137] Memory required for data: 1677291520
I1109 10:46:10.819986 18939 layer_factory.hpp:77] Creating layer relu5
I1109 10:46:10.820001 18939 net.cpp:84] Creating Layer relu5
I1109 10:46:10.820011 18939 net.cpp:406] relu5 <- conv5
I1109 10:46:10.820021 18939 net.cpp:367] relu5 -> conv5 (in-place)
I1109 10:46:10.820224 18939 net.cpp:122] Setting up relu5
I1109 10:46:10.820233 18939 net.cpp:129] Top shape: 256 256 13 13 (11075584)
I1109 10:46:10.820237 18939 net.cpp:137] Memory required for data: 1721593856
I1109 10:46:10.820242 18939 layer_factory.hpp:77] Creating layer pool5
I1109 10:46:10.820251 18939 net.cpp:84] Creating Layer pool5
I1109 10:46:10.820256 18939 net.cpp:406] pool5 <- conv5
I1109 10:46:10.820263 18939 net.cpp:380] pool5 -> pool5
I1109 10:46:10.820312 18939 net.cpp:122] Setting up pool5
I1109 10:46:10.820320 18939 net.cpp:129] Top shape: 256 256 6 6 (2359296)
I1109 10:46:10.820324 18939 net.cpp:137] Memory required for data: 1731031040
I1109 10:46:10.820329 18939 layer_factory.hpp:77] Creating layer fc6
I1109 10:46:10.820343 18939 net.cpp:84] Creating Layer fc6
I1109 10:46:10.820348 18939 net.cpp:406] fc6 <- pool5
I1109 10:46:10.820356 18939 net.cpp:380] fc6 -> fc6
I1109 10:46:11.357002 18939 net.cpp:122] Setting up fc6
I1109 10:46:11.357069 18939 net.cpp:129] Top shape: 256 4096 (1048576)
I1109 10:46:11.357077 18939 net.cpp:137] Memory required for data: 1735225344
I1109 10:46:11.357098 18939 layer_factory.hpp:77] Creating layer relu6
I1109 10:46:11.357116 18939 net.cpp:84] Creating Layer relu6
I1109 10:46:11.357125 18939 net.cpp:406] relu6 <- fc6
I1109 10:46:11.357138 18939 net.cpp:367] relu6 -> fc6 (in-place)
I1109 10:46:11.357493 18939 net.cpp:122] Setting up relu6
I1109 10:46:11.357504 18939 net.cpp:129] Top shape: 256 4096 (1048576)
I1109 10:46:11.357509 18939 net.cpp:137] Memory required for data: 1739419648
I1109 10:46:11.357514 18939 layer_factory.hpp:77] Creating layer drop6
I1109 10:46:11.357525 18939 net.cpp:84] Creating Layer drop6
I1109 10:46:11.357532 18939 net.cpp:406] drop6 <- fc6
I1109 10:46:11.357539 18939 net.cpp:367] drop6 -> fc6 (in-place)
I1109 10:46:11.357568 18939 net.cpp:122] Setting up drop6
I1109 10:46:11.357578 18939 net.cpp:129] Top shape: 256 4096 (1048576)
I1109 10:46:11.357581 18939 net.cpp:137] Memory required for data: 1743613952
I1109 10:46:11.357586 18939 layer_factory.hpp:77] Creating layer fc7
I1109 10:46:11.357599 18939 net.cpp:84] Creating Layer fc7
I1109 10:46:11.357604 18939 net.cpp:406] fc7 <- fc6
I1109 10:46:11.357611 18939 net.cpp:380] fc7 -> fc7
I1109 10:46:11.589177 18939 net.cpp:122] Setting up fc7
I1109 10:46:11.589226 18939 net.cpp:129] Top shape: 256 4096 (1048576)
I1109 10:46:11.589231 18939 net.cpp:137] Memory required for data: 1747808256
I1109 10:46:11.589249 18939 layer_factory.hpp:77] Creating layer relu7
I1109 10:46:11.589263 18939 net.cpp:84] Creating Layer relu7
I1109 10:46:11.589270 18939 net.cpp:406] relu7 <- fc7
I1109 10:46:11.589280 18939 net.cpp:367] relu7 -> fc7 (in-place)
I1109 10:46:11.589576 18939 net.cpp:122] Setting up relu7
I1109 10:46:11.589586 18939 net.cpp:129] Top shape: 256 4096 (1048576)
I1109 10:46:11.589591 18939 net.cpp:137] Memory required for data: 1752002560
I1109 10:46:11.589596 18939 layer_factory.hpp:77] Creating layer drop7
I1109 10:46:11.589604 18939 net.cpp:84] Creating Layer drop7
I1109 10:46:11.589609 18939 net.cpp:406] drop7 <- fc7
I1109 10:46:11.589617 18939 net.cpp:367] drop7 -> fc7 (in-place)
I1109 10:46:11.589638 18939 net.cpp:122] Setting up drop7
I1109 10:46:11.589648 18939 net.cpp:129] Top shape: 256 4096 (1048576)
I1109 10:46:11.589651 18939 net.cpp:137] Memory required for data: 1756196864
I1109 10:46:11.589656 18939 layer_factory.hpp:77] Creating layer my-fc8
I1109 10:46:11.589666 18939 net.cpp:84] Creating Layer my-fc8
I1109 10:46:11.589671 18939 net.cpp:406] my-fc8 <- fc7
I1109 10:46:11.589679 18939 net.cpp:380] my-fc8 -> my-fc8
I1109 10:46:11.601934 18939 net.cpp:122] Setting up my-fc8
I1109 10:46:11.602012 18939 net.cpp:129] Top shape: 256 196 (50176)
I1109 10:46:11.602067 18939 net.cpp:137] Memory required for data: 1756397568
I1109 10:46:11.602087 18939 layer_factory.hpp:77] Creating layer loss
I1109 10:46:11.602105 18939 net.cpp:84] Creating Layer loss
I1109 10:46:11.602115 18939 net.cpp:406] loss <- my-fc8
I1109 10:46:11.602125 18939 net.cpp:406] loss <- label
I1109 10:46:11.602138 18939 net.cpp:380] loss -> loss
I1109 10:46:11.602165 18939 layer_factory.hpp:77] Creating layer loss
…
I1109 10:46:11.604259 18939 solver.cpp:172] Creating test net (#0) specified by net file: ./train_val.prototxt
I1109 10:46:11.604317 18939 net.cpp:294] The NetState phase (1) differed from the phase (0) specified by a rule in layer data
I1109 10:46:11.604532 18939 net.cpp:51] Initializing net from parameters: 
name: "CaffeNet"
state {
  phase: TEST
}
layer {
  name: "data"
  type: "Data"
  top: "data"
  top: "label"
  include {
    phase: TEST
  }
  transform_param {
    mirror: false
    crop_size: 227
  }
  data_param {
    source: "../../data/test_lmdb"
    batch_size: 50
    backend: LMDB
  }
}
layer {
  name: "conv1"
  type: "Convolution"
  bottom: "data"
  top: "conv1"
  param {
    lr_mult: 1
    decay_mult: 1
  }
  param {
    lr_mult: 2
    decay_mult: 0
  }
  convolution_param {
    num_output: 96
    kernel_size: 11
    stride: 4
    weight_filler {
      type: "gaussian"
      std: 0.01
    }
    bias_filler {
      type: "constant"
      value: 0
    }
  }
}
layer {
  name: "relu1"
  type: "ReLU"
  bottom: "conv1"
  top: "conv1"
}
layer {
  name: "pool1"
  type: "Pooling"
  bottom: "conv1"
  top: "pool1"
  pooling_param {
    pool: MAX
    kernel_size: 3
    stride: 2
  }
}
layer {
  name: "norm1"
  type: "LRN"
  bottom: "pool1"
  top: "norm1"
  lrn_param {
    local_size: 5
    alpha: 0.0001
    beta: 0.75
  }
}
layer {
  name: "conv2"
  type: "Convolution"
  bottom: "norm1"
  top: "conv2"
  param {
    lr_mult: 1
    decay_mult: 1
  }
  param {
    lr_mult: 2
    decay_mult: 0
  }
  convolution_param {
    num_output: 256
    pad: 2
    kernel_size: 5
    group: 2
    weight_filler {
      type: "gaussian"
      std: 0.01
    }
    bias_filler {
      type: "constant"
      value: 1
    }
  }
}
layer {
  name: "relu2"
  type: "ReLU"
  bottom: "conv2"
  top: "conv2"
}
layer {
  name: "pool2"
  type: "Pooling"
  bottom: "conv2"
  top: "pool2"
  pooling_param {
    pool: MAX
    kernel_size: 3
    stride: 2
  }
}
layer {
  name: "norm2"
  type: "LRN"
  bottom: "pool2"
  top: "norm2"
  lrn_param {
    local_size: 5
    alpha: 0.0001
    beta: 0.75
  }
}
layer {
  name: "conv3"
  type: "Convolution"
  bottom: "norm2"
  top: "conv3"
  param {
    lr_mult: 1
    decay_mult: 1
  }
  param {
    lr_mult: 2
    decay_mult: 0
  }
  convolution_param {
    num_output: 384
    pad: 1
    kernel_size: 3
    weight_filler {
      type: "gaussian"
      std: 0.01
    }
    bias_filler {
      type: "constant"
      value: 0
    }
  }
}
layer {
  name: "relu3"
  type: "ReLU"
  bottom: "conv3"
  top: "conv3"
}
layer {
  name: "conv4"
  type: "Convolution"
  bottom: "conv3"
  top: "conv4"
  param {
    lr_mult: 1
    decay_mult: 1
  }
  param {
    lr_mult: 2
    decay_mult: 0
  }
  convolution_param {
    num_output: 384
    pad: 1
    kernel_size: 3
    group: 2
    weight_filler {
      type: "gaussian"
      std: 0.01
    }
    bias_filler {
      type: "constant"
      value: 1
    }
  }
}
layer {
  name: "relu4"
  type: "ReLU"
  bottom: "conv4"
  top: "conv4"
}
layer {
  name: "conv5"
  type: "Convolution"
  bottom: "conv4"
  top: "conv5"
  param {
    lr_mult: 1
    decay_mult: 1
  }
  param {
    lr_mult: 2
    decay_mult: 0
  }
  convolution_param {
    num_output: 256
    pad: 1
    kernel_size: 3
    group: 2
    weight_filler {
      type: "gaussian"
      std: 0.01
    }
    bias_filler {
      type: "constant"
      value: 1
    }
  }
}
layer {
  name: "relu5"
  type: "ReLU"
  bottom: "conv5"
  top: "conv5"
}
layer {
  name: "pool5"
  type: "Pooling"
  bottom: "conv5"
  top: "pool5"
  pooling_param {
    pool: MAX
    kernel_size: 3
    stride: 2
  }
}
layer {
  name: "fc6"
  type: "InnerProduct"
  bottom: "pool5"
  top: "fc6"
  param {
    lr_mult: 1
    decay_mult: 1
  }
  param {
    lr_mult: 2
    decay_mult: 0
  }
  inner_product_param {
    num_output: 4096
    weight_filler {
      type: "gaussian"
      std: 0.005
    }
    bias_filler {
      type: "constant"
      value: 1
    }
  }
}
layer {
  name: "relu6"
  type: "ReLU"
  bottom: "fc6"
  top: "fc6"
}
layer {
  name: "drop6"
  type: "Dropout"
  bottom: "fc6"
  top: "fc6"
  dropout_param {
    dropout_ratio: 0.5
  }
}
layer {
  name: "fc7"
  type: "InnerProduct"
  bottom: "fc6"
  top: "fc7"
  param {
    lr_mult: 1
    decay_mult: 1
  }
  param {
    lr_mult: 2
    decay_mult: 0
  }
  inner_product_param {
    num_output: 4096
    weight_filler {
      type: "gaussian"
      std: 0.005
    }
    bias_filler {
      type: "constant"
      value: 1
    }
  }
}
layer {
  name: "relu7"
  type: "ReLU"
  bottom: "fc7"
  top: "fc7"
}
layer {
  name: "drop7"
  type: "Dropout"
  bottom: "fc7"
  top: "fc7"
  dropout_param {
    dropout_ratio: 0.5
  }
}
layer {
  name: "my-fc8"
  type: "InnerProduct"
  bottom: "fc7"
  top: "my-fc8"
  param {
    lr_mult: 1
    decay_mult: 1
  }
  param {
    lr_mult: 2
    decay_mult: 0
  }
  inner_product_param {
    num_output: 196
    weight_filler {
      type: "gaussian"
      std: 0.01
    }
    bias_filler {
      type: "constant"
      value: 0
    }
  }
}
layer {
  name: "accuracy"
  type: "Accuracy"
  bottom: "my-fc8"
  bottom: "label"
  top: "accuracy"
  include {
    phase: TEST
  }
}
layer {
  name: "loss"
  type: "SoftmaxWithLoss"
  bottom: "my-fc8"
  bottom: "label"
  top: "loss"
}
I1109 10:46:11.604677 18939 layer_factory.hpp:77] Creating layer data
I1109 10:46:11.607317 18939 db_lmdb.cpp:35] Opened lmdb ../../data/test_lmdb
I1109 10:46:11.608579 18939 net.cpp:84] Creating Layer data
I1109 10:46:11.608628 18939 net.cpp:380] data -> data
I1109 10:46:11.608759 18939 net.cpp:380] data -> label
I1109 10:46:11.616824 18939 data_layer.cpp:45] output data size: 50,3,227,227
I1109 10:46:11.720381 18939 net.cpp:122] Setting up data
I1109 10:46:11.720475 18939 net.cpp:129] Top shape: 50 3 227 227 (7729350)
I1109 10:46:11.720496 18939 net.cpp:129] Top shape: 50 (50)
I1109 10:46:11.720512 18939 net.cpp:137] Memory required for data: 30917600
I1109 10:46:11.720531 18939 layer_factory.hpp:77] Creating layer label_data_1_split
I1109 10:46:11.720561 18939 net.cpp:84] Creating Layer label_data_1_split
I1109 10:46:11.720578 18939 net.cpp:406] label_data_1_split <- label
I1109 10:46:11.720599 18939 net.cpp:380] label_data_1_split -> label_data_1_split_0
I1109 10:46:11.720624 18939 net.cpp:380] label_data_1_split -> label_data_1_split_1
I1109 10:46:11.720746 18939 net.cpp:122] Setting up label_data_1_split
I1109 10:46:11.720763 18939 net.cpp:129] Top shape: 50 (50)
I1109 10:46:11.720779 18939 net.cpp:129] Top shape: 50 (50)
I1109 10:46:11.720793 18939 net.cpp:137] Memory required for data: 30918000
I1109 10:46:11.720808 18939 layer_factory.hpp:77] Creating layer conv1
I1109 10:46:11.720834 18939 net.cpp:84] Creating Layer conv1
I1109 10:46:11.720849 18939 net.cpp:406] conv1 <- data
I1109 10:46:11.720866 18939 net.cpp:380] conv1 -> conv1
I1109 10:46:11.726637 18939 net.cpp:122] Setting up conv1
I1109 10:46:11.726725 18939 net.cpp:129] Top shape: 50 96 55 55 (14520000)
I1109 10:46:11.726742 18939 net.cpp:137] Memory required for data: 88998000
I1109 10:46:11.726776 18939 layer_factory.hpp:77] Creating layer relu1
I1109 10:46:11.726802 18939 net.cpp:84] Creating Layer relu1
I1109 10:46:11.726819 18939 net.cpp:406] relu1 <- conv1
I1109 10:46:11.726837 18939 net.cpp:367] relu1 -> conv1 (in-place)
I1109 10:46:11.727200 18939 net.cpp:122] Setting up relu1
I1109 10:46:11.727226 18939 net.cpp:129] Top shape: 50 96 55 55 (14520000)
I1109 10:46:11.727241 18939 net.cpp:137] Memory required for data: 147078000
I1109 10:46:11.727254 18939 layer_factory.hpp:77] Creating layer pool1
I1109 10:46:11.727280 18939 net.cpp:84] Creating Layer pool1
I1109 10:46:11.727296 18939 net.cpp:406] pool1 <- conv1
I1109 10:46:11.727314 18939 net.cpp:380] pool1 -> pool1
I1109 10:46:11.727389 18939 net.cpp:122] Setting up pool1
I1109 10:46:11.727399 18939 net.cpp:129] Top shape: 50 96 27 27 (3499200)
I1109 10:46:11.727404 18939 net.cpp:137] Memory required for data: 161074800
I1109 10:46:11.727408 18939 layer_factory.hpp:77] Creating layer norm1
I1109 10:46:11.727418 18939 net.cpp:84] Creating Layer norm1
I1109 10:46:11.727424 18939 net.cpp:406] norm1 <- pool1
I1109 10:46:11.727506 18939 net.cpp:380] norm1 -> norm1
I1109 10:46:11.727758 18939 net.cpp:122] Setting up norm1
I1109 10:46:11.727768 18939 net.cpp:129] Top shape: 50 96 27 27 (3499200)
I1109 10:46:11.727773 18939 net.cpp:137] Memory required for data: 175071600
I1109 10:46:11.727778 18939 layer_factory.hpp:77] Creating layer conv2
I1109 10:46:11.727797 18939 net.cpp:84] Creating Layer conv2
I1109 10:46:11.727813 18939 net.cpp:406] conv2 <- norm1
I1109 10:46:11.727833 18939 net.cpp:380] conv2 -> conv2
I1109 10:46:11.736971 18939 net.cpp:122] Setting up conv2
I1109 10:46:11.737017 18939 net.cpp:129] Top shape: 50 256 27 27 (9331200)
I1109 10:46:11.737025 18939 net.cpp:137] Memory required for data: 212396400
I1109 10:46:11.737049 18939 layer_factory.hpp:77] Creating layer relu2
I1109 10:46:11.737066 18939 net.cpp:84] Creating Layer relu2
I1109 10:46:11.737072 18939 net.cpp:406] relu2 <- conv2
I1109 10:46:11.737085 18939 net.cpp:367] relu2 -> conv2 (in-place)
I1109 10:46:11.737332 18939 net.cpp:122] Setting up relu2
I1109 10:46:11.737344 18939 net.cpp:129] Top shape: 50 256 27 27 (9331200)
I1109 10:46:11.737349 18939 net.cpp:137] Memory required for data: 249721200
I1109 10:46:11.737354 18939 layer_factory.hpp:77] Creating layer pool2
I1109 10:46:11.737367 18939 net.cpp:84] Creating Layer pool2
I1109 10:46:11.737372 18939 net.cpp:406] pool2 <- conv2
I1109 10:46:11.737380 18939 net.cpp:380] pool2 -> pool2
I1109 10:46:11.737442 18939 net.cpp:122] Setting up pool2
I1109 10:46:11.737464 18939 net.cpp:129] Top shape: 50 256 13 13 (2163200)
I1109 10:46:11.737469 18939 net.cpp:137] Memory required for data: 258374000
I1109 10:46:11.737474 18939 layer_factory.hpp:77] Creating layer norm2
I1109 10:46:11.737484 18939 net.cpp:84] Creating Layer norm2
I1109 10:46:11.737490 18939 net.cpp:406] norm2 <- pool2
I1109 10:46:11.737499 18939 net.cpp:380] norm2 -> norm2
I1109 10:46:11.737758 18939 net.cpp:122] Setting up norm2
I1109 10:46:11.737768 18939 net.cpp:129] Top shape: 50 256 13 13 (2163200)
I1109 10:46:11.737774 18939 net.cpp:137] Memory required for data: 267026800
I1109 10:46:11.737779 18939 layer_factory.hpp:77] Creating layer conv3
I1109 10:46:11.737797 18939 net.cpp:84] Creating Layer conv3
I1109 10:46:11.737802 18939 net.cpp:406] conv3 <- norm2
I1109 10:46:11.737813 18939 net.cpp:380] conv3 -> conv3
I1109 10:46:11.753378 18939 net.cpp:122] Setting up conv3
I1109 10:46:11.753532 18939 net.cpp:129] Top shape: 50 384 13 13 (3244800)
I1109 10:46:11.753551 18939 net.cpp:137] Memory required for data: 280006000
I1109 10:46:11.753600 18939 layer_factory.hpp:77] Creating layer relu3
I1109 10:46:11.753631 18939 net.cpp:84] Creating Layer relu3
I1109 10:46:11.753648 18939 net.cpp:406] relu3 <- conv3
I1109 10:46:11.753669 18939 net.cpp:367] relu3 -> conv3 (in-place)
I1109 10:46:11.754637 18939 net.cpp:122] Setting up relu3
I1109 10:46:11.754665 18939 net.cpp:129] Top shape: 50 384 13 13 (3244800)
I1109 10:46:11.754672 18939 net.cpp:137] Memory required for data: 292985200
I1109 10:46:11.754678 18939 layer_factory.hpp:77] Creating layer conv4
I1109 10:46:11.754703 18939 net.cpp:84] Creating Layer conv4
I1109 10:46:11.754709 18939 net.cpp:406] conv4 <- conv3
I1109 10:46:11.754721 18939 net.cpp:380] conv4 -> conv4
I1109 10:46:11.767565 18939 net.cpp:122] Setting up conv4
I1109 10:46:11.767648 18939 net.cpp:129] Top shape: 50 384 13 13 (3244800)
I1109 10:46:11.767666 18939 net.cpp:137] Memory required for data: 305964400
I1109 10:46:11.767694 18939 layer_factory.hpp:77] Creating layer relu4
I1109 10:46:11.767719 18939 net.cpp:84] Creating Layer relu4
I1109 10:46:11.767735 18939 net.cpp:406] relu4 <- conv4
I1109 10:46:11.767755 18939 net.cpp:367] relu4 -> conv4 (in-place)
I1109 10:46:11.768935 18939 net.cpp:122] Setting up relu4
I1109 10:46:11.769035 18939 net.cpp:129] Top shape: 50 384 13 13 (3244800)
I1109 10:46:11.769052 18939 net.cpp:137] Memory required for data: 318943600
I1109 10:46:11.769073 18939 layer_factory.hpp:77] Creating layer conv5
I1109 10:46:11.769107 18939 net.cpp:84] Creating Layer conv5
I1109 10:46:11.769124 18939 net.cpp:406] conv5 <- conv4
I1109 10:46:11.769148 18939 net.cpp:380] conv5 -> conv5
I1109 10:46:11.779357 18939 net.cpp:122] Setting up conv5
I1109 10:46:11.779407 18939 net.cpp:129] Top shape: 50 256 13 13 (2163200)
I1109 10:46:11.779414 18939 net.cpp:137] Memory required for data: 327596400
I1109 10:46:11.779448 18939 layer_factory.hpp:77] Creating layer relu5
I1109 10:46:11.779466 18939 net.cpp:84] Creating Layer relu5
I1109 10:46:11.779475 18939 net.cpp:406] relu5 <- conv5
I1109 10:46:11.779489 18939 net.cpp:367] relu5 -> conv5 (in-place)
I1109 10:46:11.780151 18939 net.cpp:122] Setting up relu5
I1109 10:46:11.780174 18939 net.cpp:129] Top shape: 50 256 13 13 (2163200)
I1109 10:46:11.780179 18939 net.cpp:137] Memory required for data: 336249200
I1109 10:46:11.780186 18939 layer_factory.hpp:77] Creating layer pool5
I1109 10:46:11.780203 18939 net.cpp:84] Creating Layer pool5
I1109 10:46:11.780208 18939 net.cpp:406] pool5 <- conv5
I1109 10:46:11.780220 18939 net.cpp:380] pool5 -> pool5
I1109 10:46:11.780302 18939 net.cpp:122] Setting up pool5
I1109 10:46:11.780311 18939 net.cpp:129] Top shape: 50 256 6 6 (460800)
I1109 10:46:11.780316 18939 net.cpp:137] Memory required for data: 338092400
I1109 10:46:11.780320 18939 layer_factory.hpp:77] Creating layer fc6
I1109 10:46:11.780333 18939 net.cpp:84] Creating Layer fc6
I1109 10:46:11.780336 18939 net.cpp:406] fc6 <- pool5
I1109 10:46:11.780344 18939 net.cpp:380] fc6 -> fc6
I1109 10:46:12.315212 18939 net.cpp:122] Setting up fc6
I1109 10:46:12.315299 18939 net.cpp:129] Top shape: 50 4096 (204800)
I1109 10:46:12.315305 18939 net.cpp:137] Memory required for data: 338911600
I1109 10:46:12.315322 18939 layer_factory.hpp:77] Creating layer relu6
I1109 10:46:12.315337 18939 net.cpp:84] Creating Layer relu6
I1109 10:46:12.315361 18939 net.cpp:406] relu6 <- fc6
I1109 10:46:12.315387 18939 net.cpp:367] relu6 -> fc6 (in-place)
I1109 10:46:12.315706 18939 net.cpp:122] Setting up relu6
I1109 10:46:12.315717 18939 net.cpp:129] Top shape: 50 4096 (204800)
I1109 10:46:12.315721 18939 net.cpp:137] Memory required for data: 339730800
I1109 10:46:12.315726 18939 layer_factory.hpp:77] Creating layer drop6
I1109 10:46:12.315737 18939 net.cpp:84] Creating Layer drop6
I1109 10:46:12.315752 18939 net.cpp:406] drop6 <- fc6
I1109 10:46:12.315773 18939 net.cpp:367] drop6 -> fc6 (in-place)
I1109 10:46:12.315819 18939 net.cpp:122] Setting up drop6
I1109 10:46:12.315829 18939 net.cpp:129] Top shape: 50 4096 (204800)
I1109 10:46:12.315832 18939 net.cpp:137] Memory required for data: 340550000
I1109 10:46:12.315837 18939 layer_factory.hpp:77] Creating layer fc7
I1109 10:46:12.315848 18939 net.cpp:84] Creating Layer fc7
I1109 10:46:12.315863 18939 net.cpp:406] fc7 <- fc6
I1109 10:46:12.315883 18939 net.cpp:380] fc7 -> fc7
I1109 10:46:12.554410 18939 net.cpp:122] Setting up fc7
I1109 10:46:12.554462 18939 net.cpp:129] Top shape: 50 4096 (204800)
I1109 10:46:12.554468 18939 net.cpp:137] Memory required for data: 341369200
I1109 10:46:12.554486 18939 layer_factory.hpp:77] Creating layer relu7
I1109 10:46:12.554502 18939 net.cpp:84] Creating Layer relu7
I1109 10:46:12.554509 18939 net.cpp:406] relu7 <- fc7
I1109 10:46:12.554522 18939 net.cpp:367] relu7 -> fc7 (in-place)
I1109 10:46:12.554882 18939 net.cpp:122] Setting up relu7
I1109 10:46:12.554893 18939 net.cpp:129] Top shape: 50 4096 (204800)
I1109 10:46:12.554898 18939 net.cpp:137] Memory required for data: 342188400
I1109 10:46:12.554903 18939 layer_factory.hpp:77] Creating layer drop7
I1109 10:46:12.554913 18939 net.cpp:84] Creating Layer drop7
I1109 10:46:12.554918 18939 net.cpp:406] drop7 <- fc7
I1109 10:46:12.554924 18939 net.cpp:367] drop7 -> fc7 (in-place)
I1109 10:46:12.554960 18939 net.cpp:122] Setting up drop7
I1109 10:46:12.554966 18939 net.cpp:129] Top shape: 50 4096 (204800)
I1109 10:46:12.554971 18939 net.cpp:137] Memory required for data: 343007600
I1109 10:46:12.554975 18939 layer_factory.hpp:77] Creating layer my-fc8
I1109 10:46:12.554986 18939 net.cpp:84] Creating Layer my-fc8
I1109 10:46:12.554991 18939 net.cpp:406] my-fc8 <- fc7
I1109 10:46:12.554999 18939 net.cpp:380] my-fc8 -> my-fc8
I1109 10:46:12.567447 18939 net.cpp:122] Setting up my-fc8
I1109 10:46:12.567569 18939 net.cpp:129] Top shape: 50 196 (9800)
I1109 10:46:12.567584 18939 net.cpp:137] Memory required for data: 343046800
I1109 10:46:12.567613 18939 layer_factory.hpp:77] Creating layer my-fc8_my-fc8_0_split
I1109 10:46:12.567641 18939 net.cpp:84] Creating Layer my-fc8_my-fc8_0_split
I1109 10:46:12.567659 18939 net.cpp:406] my-fc8_my-fc8_0_split <- my-fc8
I1109 10:46:12.567682 18939 net.cpp:380] my-fc8_my-fc8_0_split -> my-fc8_my-fc8_0_split_0
I1109 10:46:12.567708 18939 net.cpp:380] my-fc8_my-fc8_0_split -> my-fc8_my-fc8_0_split_1
I1109 10:46:12.567780 18939 net.cpp:122] Setting up my-fc8_my-fc8_0_split
I1109 10:46:12.567798 18939 net.cpp:129] Top shape: 50 196 (9800)
I1109 10:46:12.567816 18939 net.cpp:129] Top shape: 50 196 (9800)
I1109 10:46:12.567831 18939 net.cpp:137] Memory required for data: 343125200
I1109 10:46:12.567844 18939 layer_factory.hpp:77] Creating layer accuracy
I1109 10:46:12.567865 18939 net.cpp:84] Creating Layer accuracy
I1109 10:46:12.567880 18939 net.cpp:406] accuracy <- my-fc8_my-fc8_0_split_0
I1109 10:46:12.567896 18939 net.cpp:406] accuracy <- label_data_1_split_0
I1109 10:46:12.567955 18939 net.cpp:380] accuracy -> accuracy
…
