…
I1109 10:51:40.040520 19888 net.cpp:294] The NetState phase (0) differed from the phase (1) specified by a rule in layer data
I1109 10:51:40.040561 19888 net.cpp:294] The NetState phase (0) differed from the phase (1) specified by a rule in layer accuracy
I1109 10:51:40.040832 19888 net.cpp:51] Initializing net from parameters: 
name: "AlexNet"
state {
  phase: TRAIN
  level: 0
  stage: ""
}
layer {
  name: "data"
  type: "Data"
  top: "data"
  top: "label"
  include {
    phase: TRAIN
  }
  transform_param {
    mirror: true
    crop_size: 227
  }
  data_param {
    source: "../../data/train_lmdb"
    batch_size: 256
    backend: LMDB
  }
}
layer {
  name: "conv1"
  type: "Convolution"
  bottom: "data"
  top: "conv1"
  param {
    lr_mult: 1
    decay_mult: 1
  }
  param {
    lr_mult: 2
    decay_mult: 0
  }
  convolution_param {
    num_output: 96
    kernel_size: 11
    stride: 4
    weight_filler {
      type: "gaussian"
      std: 0.01
    }
    bias_filler {
      type: "constant"
      value: 0
    }
  }
}
layer {
  name: "relu1"
  type: "ReLU"
  bottom: "conv1"
  top: "conv1"
}
layer {
  name: "norm1"
  type: "LRN"
  bottom: "conv1"
  top: "norm1"
  lrn_param {
    local_size: 5
    alpha: 0.0001
    beta: 0.75
  }
}
layer {
  name: "pool1"
  type: "Pooling"
  bottom: "norm1"
  top: "pool1"
  pooling_param {
    pool: MAX
    kernel_size: 3
    stride: 2
  }
}
layer {
  name: "conv2"
  type: "Convolution"
  bottom: "pool1"
  top: "conv2"
  param {
    lr_mult: 1
    decay_mult: 1
  }
  param {
    lr_mult: 2
    decay_mult: 0
  }
  convolution_param {
    num_output: 256
    pad: 2
    kernel_size: 5
    group: 2
    weight_filler {
      type: "gaussian"
      std: 0.01
    }
    bias_filler {
      type: "constant"
      value: 0.1
    }
  }
}
layer {
  name: "relu2"
  type: "ReLU"
  bottom: "conv2"
  top: "conv2"
}
layer {
  name: "norm2"
  type: "LRN"
  bottom: "conv2"
  top: "norm2"
  lrn_param {
    local_size: 5
    alpha: 0.0001
    beta: 0.75
  }
}
layer {
  name: "pool2"
  type: "Pooling"
  bottom: "norm2"
  top: "pool2"
  pooling_param {
    pool: MAX
    kernel_size: 3
    stride: 2
  }
}
layer {
  name: "conv3"
  type: "Convolution"
  bottom: "pool2"
  top: "conv3"
  param {
    lr_mult: 1
    decay_mult: 1
  }
  param {
    lr_mult: 2
    decay_mult: 0
  }
  convolution_param {
    num_output: 384
    pad: 1
    kernel_size: 3
    weight_filler {
      type: "gaussian"
      std: 0.01
    }
    bias_filler {
      type: "constant"
      value: 0
    }
  }
}
layer {
  name: "relu3"
  type: "ReLU"
  bottom: "conv3"
  top: "conv3"
}
layer {
  name: "conv4"
  type: "Convolution"
  bottom: "conv3"
  top: "conv4"
  param {
    lr_mult: 1
    decay_mult: 1
  }
  param {
    lr_mult: 2
    decay_mult: 0
  }
  convolution_param {
    num_output: 384
    pad: 1
    kernel_size: 3
    group: 2
    weight_filler {
      type: "gaussian"
      std: 0.01
    }
    bias_filler {
      type: "constant"
      value: 0.1
    }
  }
}
layer {
  name: "relu4"
  type: "ReLU"
  bottom: "conv4"
  top: "conv4"
}
layer {
  name: "conv5"
  type: "Convolution"
  bottom: "conv4"
  top: "conv5"
  param {
    lr_mult: 1
    decay_mult: 1
  }
  param {
    lr_mult: 2
    decay_mult: 0
  }
  convolution_param {
    num_output: 256
    pad: 1
    kernel_size: 3
    group: 2
    weight_filler {
      type: "gaussian"
      std: 0.01
    }
    bias_filler {
      type: "constant"
      value: 0.1
    }
  }
}
layer {
  name: "relu5"
  type: "ReLU"
  bottom: "conv5"
  top: "conv5"
}
layer {
  name: "pool5"
  type: "Pooling"
  bottom: "conv5"
  top: "pool5"
  pooling_param {
    pool: MAX
    kernel_size: 3
    stride: 2
  }
}
layer {
  name: "fc6"
  type: "InnerProduct"
  bottom: "pool5"
  top: "fc6"
  param {
    lr_mult: 1
    decay_mult: 1
  }
  param {
    lr_mult: 2
    decay_mult: 0
  }
  inner_product_param {
    num_output: 4096
    weight_filler {
      type: "gaussian"
      std: 0.005
    }
    bias_filler {
      type: "constant"
      value: 0.1
    }
  }
}
layer {
  name: "relu6"
  type: "ReLU"
  bottom: "fc6"
  top: "fc6"
}
layer {
  name: "drop6"
  type: "Dropout"
  bottom: "fc6"
  top: "fc6"
  dropout_param {
    dropout_ratio: 0.5
  }
}
layer {
  name: "fc7"
  type: "InnerProduct"
  bottom: "fc6"
  top: "fc7"
  param {
    lr_mult: 1
    decay_mult: 1
  }
  param {
    lr_mult: 2
    decay_mult: 0
  }
  inner_product_param {
    num_output: 4096
    weight_filler {
      type: "gaussian"
      std: 0.005
    }
    bias_filler {
      type: "constant"
      value: 0.1
    }
  }
}
layer {
  name: "relu7"
  type: "ReLU"
  bottom: "fc7"
  top: "fc7"
}
layer {
  name: "drop7"
  type: "Dropout"
  bottom: "fc7"
  top: "fc7"
  dropout_param {
    dropout_ratio: 0.5
  }
}
layer {
  name: "my-fc8"
  type: "InnerProduct"
  bottom: "fc7"
  top: "my-fc8"
  param {
    lr_mult: 1
    decay_mult: 1
  }
  param {
    lr_mult: 2
    decay_mult: 0
  }
  inner_product_param {
    num_output: 196
    weight_filler {
      type: "gaussian"
      std: 0.01
    }
    bias_filler {
      type: "constant"
      value: 0
    }
  }
}
layer {
  name: "loss"
  type: "SoftmaxWithLoss"
  bottom: "my-fc8"
  bottom: "label"
  top: "loss"
}
I1109 10:51:40.041051 19888 layer_factory.hpp:77] Creating layer data
I1109 10:51:40.043648 19888 db_lmdb.cpp:35] Opened lmdb ../../data/train_lmdb
I1109 10:51:40.043828 19888 net.cpp:84] Creating Layer data
I1109 10:51:40.043859 19888 net.cpp:380] data -> data
I1109 10:51:40.043928 19888 net.cpp:380] data -> label
I1109 10:51:40.054170 19888 data_layer.cpp:45] output data size: 256,3,227,227
I1109 10:51:40.662004 19888 net.cpp:122] Setting up data
I1109 10:51:40.662098 19888 net.cpp:129] Top shape: 256 3 227 227 (39574272)
I1109 10:51:40.662108 19888 net.cpp:129] Top shape: 256 (256)
I1109 10:51:40.662113 19888 net.cpp:137] Memory required for data: 158298112
I1109 10:51:40.662127 19888 layer_factory.hpp:77] Creating layer conv1
I1109 10:51:40.662158 19888 net.cpp:84] Creating Layer conv1
I1109 10:51:40.662168 19888 net.cpp:406] conv1 <- data
I1109 10:51:40.662185 19888 net.cpp:380] conv1 -> conv1
I1109 10:51:41.746894 19888 net.cpp:122] Setting up conv1
I1109 10:51:41.746937 19888 net.cpp:129] Top shape: 256 96 55 55 (74342400)
I1109 10:51:41.746942 19888 net.cpp:137] Memory required for data: 455667712
I1109 10:51:41.746978 19888 layer_factory.hpp:77] Creating layer relu1
I1109 10:51:41.747875 19888 net.cpp:84] Creating Layer relu1
I1109 10:51:41.747885 19888 net.cpp:406] relu1 <- conv1
I1109 10:51:41.747895 19888 net.cpp:367] relu1 -> conv1 (in-place)
I1109 10:51:41.748196 19888 net.cpp:122] Setting up relu1
I1109 10:51:41.748211 19888 net.cpp:129] Top shape: 256 96 55 55 (74342400)
I1109 10:51:41.748217 19888 net.cpp:137] Memory required for data: 753037312
I1109 10:51:41.748222 19888 layer_factory.hpp:77] Creating layer norm1
I1109 10:51:41.748234 19888 net.cpp:84] Creating Layer norm1
I1109 10:51:41.748239 19888 net.cpp:406] norm1 <- conv1
I1109 10:51:41.748247 19888 net.cpp:380] norm1 -> norm1
I1109 10:51:41.748502 19888 net.cpp:122] Setting up norm1
I1109 10:51:41.748512 19888 net.cpp:129] Top shape: 256 96 55 55 (74342400)
I1109 10:51:41.748518 19888 net.cpp:137] Memory required for data: 1050406912
I1109 10:51:41.748523 19888 layer_factory.hpp:77] Creating layer pool1
I1109 10:51:41.748533 19888 net.cpp:84] Creating Layer pool1
I1109 10:51:41.748538 19888 net.cpp:406] pool1 <- norm1
I1109 10:51:41.748546 19888 net.cpp:380] pool1 -> pool1
I1109 10:51:41.748598 19888 net.cpp:122] Setting up pool1
I1109 10:51:41.748610 19888 net.cpp:129] Top shape: 256 96 27 27 (17915904)
I1109 10:51:41.749398 19888 net.cpp:137] Memory required for data: 1122070528
I1109 10:51:41.749413 19888 layer_factory.hpp:77] Creating layer conv2
I1109 10:51:41.749439 19888 net.cpp:84] Creating Layer conv2
I1109 10:51:41.749445 19888 net.cpp:406] conv2 <- pool1
I1109 10:51:41.749455 19888 net.cpp:380] conv2 -> conv2
I1109 10:51:41.761255 19888 net.cpp:122] Setting up conv2
I1109 10:51:41.761327 19888 net.cpp:129] Top shape: 256 256 27 27 (47775744)
I1109 10:51:41.761334 19888 net.cpp:137] Memory required for data: 1313173504
I1109 10:51:41.761368 19888 layer_factory.hpp:77] Creating layer relu2
I1109 10:51:41.761395 19888 net.cpp:84] Creating Layer relu2
I1109 10:51:41.761405 19888 net.cpp:406] relu2 <- conv2
I1109 10:51:41.761420 19888 net.cpp:367] relu2 -> conv2 (in-place)
I1109 10:51:41.761857 19888 net.cpp:122] Setting up relu2
I1109 10:51:41.761905 19888 net.cpp:129] Top shape: 256 256 27 27 (47775744)
I1109 10:51:41.761914 19888 net.cpp:137] Memory required for data: 1504276480
I1109 10:51:41.761924 19888 layer_factory.hpp:77] Creating layer norm2
I1109 10:51:41.761963 19888 net.cpp:84] Creating Layer norm2
I1109 10:51:41.761970 19888 net.cpp:406] norm2 <- conv2
I1109 10:51:41.761991 19888 net.cpp:380] norm2 -> norm2
I1109 10:51:41.763239 19888 net.cpp:122] Setting up norm2
I1109 10:51:41.763308 19888 net.cpp:129] Top shape: 256 256 27 27 (47775744)
I1109 10:51:41.763314 19888 net.cpp:137] Memory required for data: 1695379456
I1109 10:51:41.763326 19888 layer_factory.hpp:77] Creating layer pool2
I1109 10:51:41.763582 19888 net.cpp:84] Creating Layer pool2
I1109 10:51:41.763603 19888 net.cpp:406] pool2 <- norm2
I1109 10:51:41.763624 19888 net.cpp:380] pool2 -> pool2
I1109 10:51:41.763730 19888 net.cpp:122] Setting up pool2
I1109 10:51:41.763751 19888 net.cpp:129] Top shape: 256 256 13 13 (11075584)
I1109 10:51:41.763756 19888 net.cpp:137] Memory required for data: 1739681792
I1109 10:51:41.763763 19888 layer_factory.hpp:77] Creating layer conv3
I1109 10:51:41.763787 19888 net.cpp:84] Creating Layer conv3
I1109 10:51:41.763793 19888 net.cpp:406] conv3 <- pool2
I1109 10:51:41.763803 19888 net.cpp:380] conv3 -> conv3
I1109 10:51:41.780187 19888 net.cpp:122] Setting up conv3
I1109 10:51:41.780228 19888 net.cpp:129] Top shape: 256 384 13 13 (16613376)
I1109 10:51:41.780233 19888 net.cpp:137] Memory required for data: 1806135296
I1109 10:51:41.780256 19888 layer_factory.hpp:77] Creating layer relu3
I1109 10:51:41.780277 19888 net.cpp:84] Creating Layer relu3
I1109 10:51:41.780284 19888 net.cpp:406] relu3 <- conv3
I1109 10:51:41.780297 19888 net.cpp:367] relu3 -> conv3 (in-place)
I1109 10:51:41.781216 19888 net.cpp:122] Setting up relu3
I1109 10:51:41.781278 19888 net.cpp:129] Top shape: 256 384 13 13 (16613376)
I1109 10:51:41.781283 19888 net.cpp:137] Memory required for data: 1872588800
I1109 10:51:41.781293 19888 layer_factory.hpp:77] Creating layer conv4
I1109 10:51:41.781327 19888 net.cpp:84] Creating Layer conv4
I1109 10:51:41.781338 19888 net.cpp:406] conv4 <- conv3
I1109 10:51:41.781363 19888 net.cpp:380] conv4 -> conv4
I1109 10:51:41.798481 19888 net.cpp:122] Setting up conv4
I1109 10:51:41.798548 19888 net.cpp:129] Top shape: 256 384 13 13 (16613376)
I1109 10:51:41.798554 19888 net.cpp:137] Memory required for data: 1939042304
I1109 10:51:41.798576 19888 layer_factory.hpp:77] Creating layer relu4
I1109 10:51:41.798594 19888 net.cpp:84] Creating Layer relu4
I1109 10:51:41.798604 19888 net.cpp:406] relu4 <- conv4
I1109 10:51:41.798617 19888 net.cpp:367] relu4 -> conv4 (in-place)
I1109 10:51:41.799815 19888 net.cpp:122] Setting up relu4
I1109 10:51:41.799871 19888 net.cpp:129] Top shape: 256 384 13 13 (16613376)
I1109 10:51:41.799878 19888 net.cpp:137] Memory required for data: 2005495808
I1109 10:51:41.799887 19888 layer_factory.hpp:77] Creating layer conv5
I1109 10:51:41.799917 19888 net.cpp:84] Creating Layer conv5
I1109 10:51:41.799929 19888 net.cpp:406] conv5 <- conv4
I1109 10:51:41.799947 19888 net.cpp:380] conv5 -> conv5
I1109 10:51:41.811833 19888 net.cpp:122] Setting up conv5
I1109 10:51:41.811908 19888 net.cpp:129] Top shape: 256 256 13 13 (11075584)
I1109 10:51:41.811956 19888 net.cpp:137] Memory required for data: 2049798144
I1109 10:51:41.811995 19888 layer_factory.hpp:77] Creating layer relu5
I1109 10:51:41.812023 19888 net.cpp:84] Creating Layer relu5
I1109 10:51:41.812033 19888 net.cpp:406] relu5 <- conv5
I1109 10:51:41.812050 19888 net.cpp:367] relu5 -> conv5 (in-place)
I1109 10:51:41.812489 19888 net.cpp:122] Setting up relu5
I1109 10:51:41.812546 19888 net.cpp:129] Top shape: 256 256 13 13 (11075584)
I1109 10:51:41.812556 19888 net.cpp:137] Memory required for data: 2094100480
I1109 10:51:41.812562 19888 layer_factory.hpp:77] Creating layer pool5
I1109 10:51:41.812587 19888 net.cpp:84] Creating Layer pool5
I1109 10:51:41.812603 19888 net.cpp:406] pool5 <- conv5
I1109 10:51:41.812620 19888 net.cpp:380] pool5 -> pool5
I1109 10:51:41.812762 19888 net.cpp:122] Setting up pool5
I1109 10:51:41.812784 19888 net.cpp:129] Top shape: 256 256 6 6 (2359296)
I1109 10:51:41.812791 19888 net.cpp:137] Memory required for data: 2103537664
I1109 10:51:41.812803 19888 layer_factory.hpp:77] Creating layer fc6
I1109 10:51:41.812836 19888 net.cpp:84] Creating Layer fc6
I1109 10:51:41.812849 19888 net.cpp:406] fc6 <- pool5
I1109 10:51:41.812861 19888 net.cpp:380] fc6 -> fc6
I1109 10:51:42.370584 19888 net.cpp:122] Setting up fc6
I1109 10:51:42.370646 19888 net.cpp:129] Top shape: 256 4096 (1048576)
I1109 10:51:42.370652 19888 net.cpp:137] Memory required for data: 2107731968
I1109 10:51:42.370673 19888 layer_factory.hpp:77] Creating layer relu6
I1109 10:51:42.370695 19888 net.cpp:84] Creating Layer relu6
I1109 10:51:42.370702 19888 net.cpp:406] relu6 <- fc6
I1109 10:51:42.370714 19888 net.cpp:367] relu6 -> fc6 (in-place)
I1109 10:51:42.371089 19888 net.cpp:122] Setting up relu6
I1109 10:51:42.371101 19888 net.cpp:129] Top shape: 256 4096 (1048576)
I1109 10:51:42.371106 19888 net.cpp:137] Memory required for data: 2111926272
I1109 10:51:42.371110 19888 layer_factory.hpp:77] Creating layer drop6
I1109 10:51:42.371121 19888 net.cpp:84] Creating Layer drop6
I1109 10:51:42.371127 19888 net.cpp:406] drop6 <- fc6
I1109 10:51:42.371134 19888 net.cpp:367] drop6 -> fc6 (in-place)
I1109 10:51:42.371162 19888 net.cpp:122] Setting up drop6
I1109 10:51:42.371168 19888 net.cpp:129] Top shape: 256 4096 (1048576)
I1109 10:51:42.371172 19888 net.cpp:137] Memory required for data: 2116120576
I1109 10:51:42.371177 19888 layer_factory.hpp:77] Creating layer fc7
I1109 10:51:42.371191 19888 net.cpp:84] Creating Layer fc7
I1109 10:51:42.371194 19888 net.cpp:406] fc7 <- fc6
I1109 10:51:42.371203 19888 net.cpp:380] fc7 -> fc7
I1109 10:51:42.632766 19888 net.cpp:122] Setting up fc7
I1109 10:51:42.632818 19888 net.cpp:129] Top shape: 256 4096 (1048576)
I1109 10:51:42.632823 19888 net.cpp:137] Memory required for data: 2120314880
I1109 10:51:42.632839 19888 layer_factory.hpp:77] Creating layer relu7
I1109 10:51:42.632853 19888 net.cpp:84] Creating Layer relu7
I1109 10:51:42.632859 19888 net.cpp:406] relu7 <- fc7
I1109 10:51:42.632875 19888 net.cpp:367] relu7 -> fc7 (in-place)
I1109 10:51:42.633183 19888 net.cpp:122] Setting up relu7
I1109 10:51:42.633194 19888 net.cpp:129] Top shape: 256 4096 (1048576)
I1109 10:51:42.633198 19888 net.cpp:137] Memory required for data: 2124509184
I1109 10:51:42.633203 19888 layer_factory.hpp:77] Creating layer drop7
I1109 10:51:42.633213 19888 net.cpp:84] Creating Layer drop7
I1109 10:51:42.633216 19888 net.cpp:406] drop7 <- fc7
I1109 10:51:42.633225 19888 net.cpp:367] drop7 -> fc7 (in-place)
I1109 10:51:42.633247 19888 net.cpp:122] Setting up drop7
I1109 10:51:42.633253 19888 net.cpp:129] Top shape: 256 4096 (1048576)
I1109 10:51:42.633257 19888 net.cpp:137] Memory required for data: 2128703488
I1109 10:51:42.633261 19888 layer_factory.hpp:77] Creating layer my-fc8
I1109 10:51:42.633275 19888 net.cpp:84] Creating Layer my-fc8
I1109 10:51:42.633278 19888 net.cpp:406] my-fc8 <- fc7
I1109 10:51:42.633285 19888 net.cpp:380] my-fc8 -> my-fc8
I1109 10:51:42.645608 19888 net.cpp:122] Setting up my-fc8
I1109 10:51:42.645673 19888 net.cpp:129] Top shape: 256 196 (50176)
I1109 10:51:42.645723 19888 net.cpp:137] Memory required for data: 2128904192
I1109 10:51:42.645743 19888 layer_factory.hpp:77] Creating layer loss
I1109 10:51:42.645761 19888 net.cpp:84] Creating Layer loss
I1109 10:51:42.645767 19888 net.cpp:406] loss <- my-fc8
I1109 10:51:42.645776 19888 net.cpp:406] loss <- label
I1109 10:51:42.645792 19888 net.cpp:380] loss -> loss
I1109 10:51:42.645817 19888 layer_factory.hpp:77] Creating layer loss
…
I1109 10:51:42.647858 19888 solver.cpp:172] Creating test net (#0) specified by net file: ./train_val.prototxt
I1109 10:51:42.647904 19888 net.cpp:294] The NetState phase (1) differed from the phase (0) specified by a rule in layer data
I1109 10:51:42.648131 19888 net.cpp:51] Initializing net from parameters: 
name: "AlexNet"
state {
  phase: TEST
}
layer {
  name: "data"
  type: "Data"
  top: "data"
  top: "label"
  include {
    phase: TEST
  }
  transform_param {
    mirror: false
    crop_size: 227
  }
  data_param {
    source: "../../data/test_lmdb"
    batch_size: 50
    backend: LMDB
  }
}
layer {
  name: "conv1"
  type: "Convolution"
  bottom: "data"
  top: "conv1"
  param {
    lr_mult: 1
    decay_mult: 1
  }
  param {
    lr_mult: 2
    decay_mult: 0
  }
  convolution_param {
    num_output: 96
    kernel_size: 11
    stride: 4
    weight_filler {
      type: "gaussian"
      std: 0.01
    }
    bias_filler {
      type: "constant"
      value: 0
    }
  }
}
layer {
  name: "relu1"
  type: "ReLU"
  bottom: "conv1"
  top: "conv1"
}
layer {
  name: "norm1"
  type: "LRN"
  bottom: "conv1"
  top: "norm1"
  lrn_param {
    local_size: 5
    alpha: 0.0001
    beta: 0.75
  }
}
layer {
  name: "pool1"
  type: "Pooling"
  bottom: "norm1"
  top: "pool1"
  pooling_param {
    pool: MAX
    kernel_size: 3
    stride: 2
  }
}
layer {
  name: "conv2"
  type: "Convolution"
  bottom: "pool1"
  top: "conv2"
  param {
    lr_mult: 1
    decay_mult: 1
  }
  param {
    lr_mult: 2
    decay_mult: 0
  }
  convolution_param {
    num_output: 256
    pad: 2
    kernel_size: 5
    group: 2
    weight_filler {
      type: "gaussian"
      std: 0.01
    }
    bias_filler {
      type: "constant"
      value: 0.1
    }
  }
}
layer {
  name: "relu2"
  type: "ReLU"
  bottom: "conv2"
  top: "conv2"
}
layer {
  name: "norm2"
  type: "LRN"
  bottom: "conv2"
  top: "norm2"
  lrn_param {
    local_size: 5
    alpha: 0.0001
    beta: 0.75
  }
}
layer {
  name: "pool2"
  type: "Pooling"
  bottom: "norm2"
  top: "pool2"
  pooling_param {
    pool: MAX
    kernel_size: 3
    stride: 2
  }
}
layer {
  name: "conv3"
  type: "Convolution"
  bottom: "pool2"
  top: "conv3"
  param {
    lr_mult: 1
    decay_mult: 1
  }
  param {
    lr_mult: 2
    decay_mult: 0
  }
  convolution_param {
    num_output: 384
    pad: 1
    kernel_size: 3
    weight_filler {
      type: "gaussian"
      std: 0.01
    }
    bias_filler {
      type: "constant"
      value: 0
    }
  }
}
layer {
  name: "relu3"
  type: "ReLU"
  bottom: "conv3"
  top: "conv3"
}
layer {
  name: "conv4"
  type: "Convolution"
  bottom: "conv3"
  top: "conv4"
  param {
    lr_mult: 1
    decay_mult: 1
  }
  param {
    lr_mult: 2
    decay_mult: 0
  }
  convolution_param {
    num_output: 384
    pad: 1
    kernel_size: 3
    group: 2
    weight_filler {
      type: "gaussian"
      std: 0.01
    }
    bias_filler {
      type: "constant"
      value: 0.1
    }
  }
}
layer {
  name: "relu4"
  type: "ReLU"
  bottom: "conv4"
  top: "conv4"
}
layer {
  name: "conv5"
  type: "Convolution"
  bottom: "conv4"
  top: "conv5"
  param {
    lr_mult: 1
    decay_mult: 1
  }
  param {
    lr_mult: 2
    decay_mult: 0
  }
  convolution_param {
    num_output: 256
    pad: 1
    kernel_size: 3
    group: 2
    weight_filler {
      type: "gaussian"
      std: 0.01
    }
    bias_filler {
      type: "constant"
      value: 0.1
    }
  }
}
layer {
  name: "relu5"
  type: "ReLU"
  bottom: "conv5"
  top: "conv5"
}
layer {
  name: "pool5"
  type: "Pooling"
  bottom: "conv5"
  top: "pool5"
  pooling_param {
    pool: MAX
    kernel_size: 3
    stride: 2
  }
}
layer {
  name: "fc6"
  type: "InnerProduct"
  bottom: "pool5"
  top: "fc6"
  param {
    lr_mult: 1
    decay_mult: 1
  }
  param {
    lr_mult: 2
    decay_mult: 0
  }
  inner_product_param {
    num_output: 4096
    weight_filler {
      type: "gaussian"
      std: 0.005
    }
    bias_filler {
      type: "constant"
      value: 0.1
    }
  }
}
layer {
  name: "relu6"
  type: "ReLU"
  bottom: "fc6"
  top: "fc6"
}
layer {
  name: "drop6"
  type: "Dropout"
  bottom: "fc6"
  top: "fc6"
  dropout_param {
    dropout_ratio: 0.5
  }
}
layer {
  name: "fc7"
  type: "InnerProduct"
  bottom: "fc6"
  top: "fc7"
  param {
    lr_mult: 1
    decay_mult: 1
  }
  param {
    lr_mult: 2
    decay_mult: 0
  }
  inner_product_param {
    num_output: 4096
    weight_filler {
      type: "gaussian"
      std: 0.005
    }
    bias_filler {
      type: "constant"
      value: 0.1
    }
  }
}
layer {
  name: "relu7"
  type: "ReLU"
  bottom: "fc7"
  top: "fc7"
}
layer {
  name: "drop7"
  type: "Dropout"
  bottom: "fc7"
  top: "fc7"
  dropout_param {
    dropout_ratio: 0.5
  }
}
layer {
  name: "my-fc8"
  type: "InnerProduct"
  bottom: "fc7"
  top: "my-fc8"
  param {
    lr_mult: 1
    decay_mult: 1
  }
  param {
    lr_mult: 2
    decay_mult: 0
  }
  inner_product_param {
    num_output: 196
    weight_filler {
      type: "gaussian"
      std: 0.01
    }
    bias_filler {
      type: "constant"
      value: 0
    }
  }
}
layer {
  name: "accuracy"
  type: "Accuracy"
  bottom: "my-fc8"
  bottom: "label"
  top: "accuracy"
  include {
    phase: TEST
  }
}
layer {
  name: "loss"
  type: "SoftmaxWithLoss"
  bottom: "my-fc8"
  bottom: "label"
  top: "loss"
}
I1109 10:51:42.648319 19888 layer_factory.hpp:77] Creating layer data
I1109 10:51:42.648784 19888 db_lmdb.cpp:35] Opened lmdb ../../data/test_lmdb
I1109 10:51:42.648816 19888 net.cpp:84] Creating Layer data
I1109 10:51:42.648824 19888 net.cpp:380] data -> data
I1109 10:51:42.648847 19888 net.cpp:380] data -> label
I1109 10:51:42.658020 19888 data_layer.cpp:45] output data size: 50,3,227,227
I1109 10:51:42.779786 19888 net.cpp:122] Setting up data
I1109 10:51:42.779835 19888 net.cpp:129] Top shape: 50 3 227 227 (7729350)
I1109 10:51:42.779847 19888 net.cpp:129] Top shape: 50 (50)
I1109 10:51:42.779852 19888 net.cpp:137] Memory required for data: 30917600
I1109 10:51:42.779863 19888 layer_factory.hpp:77] Creating layer label_data_1_split
I1109 10:51:42.779884 19888 net.cpp:84] Creating Layer label_data_1_split
I1109 10:51:42.779891 19888 net.cpp:406] label_data_1_split <- label
I1109 10:51:42.779903 19888 net.cpp:380] label_data_1_split -> label_data_1_split_0
I1109 10:51:42.779922 19888 net.cpp:380] label_data_1_split -> label_data_1_split_1
I1109 10:51:42.780007 19888 net.cpp:122] Setting up label_data_1_split
I1109 10:51:42.780016 19888 net.cpp:129] Top shape: 50 (50)
I1109 10:51:42.780021 19888 net.cpp:129] Top shape: 50 (50)
I1109 10:51:42.780025 19888 net.cpp:137] Memory required for data: 30918000
I1109 10:51:42.780030 19888 layer_factory.hpp:77] Creating layer conv1
I1109 10:51:42.780055 19888 net.cpp:84] Creating Layer conv1
I1109 10:51:42.780058 19888 net.cpp:406] conv1 <- data
I1109 10:51:42.780066 19888 net.cpp:380] conv1 -> conv1
I1109 10:51:42.782908 19888 net.cpp:122] Setting up conv1
I1109 10:51:42.782951 19888 net.cpp:129] Top shape: 50 96 55 55 (14520000)
I1109 10:51:42.782956 19888 net.cpp:137] Memory required for data: 88998000
I1109 10:51:42.782980 19888 layer_factory.hpp:77] Creating layer relu1
I1109 10:51:42.782994 19888 net.cpp:84] Creating Layer relu1
I1109 10:51:42.782999 19888 net.cpp:406] relu1 <- conv1
I1109 10:51:42.783007 19888 net.cpp:367] relu1 -> conv1 (in-place)
I1109 10:51:42.783238 19888 net.cpp:122] Setting up relu1
I1109 10:51:42.783249 19888 net.cpp:129] Top shape: 50 96 55 55 (14520000)
I1109 10:51:42.783253 19888 net.cpp:137] Memory required for data: 147078000
I1109 10:51:42.783257 19888 layer_factory.hpp:77] Creating layer norm1
I1109 10:51:42.783272 19888 net.cpp:84] Creating Layer norm1
I1109 10:51:42.783275 19888 net.cpp:406] norm1 <- conv1
I1109 10:51:42.783284 19888 net.cpp:380] norm1 -> norm1
I1109 10:51:42.783566 19888 net.cpp:122] Setting up norm1
I1109 10:51:42.783582 19888 net.cpp:129] Top shape: 50 96 55 55 (14520000)
I1109 10:51:42.783587 19888 net.cpp:137] Memory required for data: 205158000
I1109 10:51:42.783592 19888 layer_factory.hpp:77] Creating layer pool1
I1109 10:51:42.783601 19888 net.cpp:84] Creating Layer pool1
I1109 10:51:42.783605 19888 net.cpp:406] pool1 <- norm1
I1109 10:51:42.783612 19888 net.cpp:380] pool1 -> pool1
I1109 10:51:42.783664 19888 net.cpp:122] Setting up pool1
I1109 10:51:42.783674 19888 net.cpp:129] Top shape: 50 96 27 27 (3499200)
I1109 10:51:42.783679 19888 net.cpp:137] Memory required for data: 219154800
I1109 10:51:42.783684 19888 layer_factory.hpp:77] Creating layer conv2
I1109 10:51:42.783700 19888 net.cpp:84] Creating Layer conv2
I1109 10:51:42.783707 19888 net.cpp:406] conv2 <- pool1
I1109 10:51:42.783717 19888 net.cpp:380] conv2 -> conv2
I1109 10:51:42.796553 19888 net.cpp:122] Setting up conv2
I1109 10:51:42.796602 19888 net.cpp:129] Top shape: 50 256 27 27 (9331200)
I1109 10:51:42.796609 19888 net.cpp:137] Memory required for data: 256479600
I1109 10:51:42.796717 19888 layer_factory.hpp:77] Creating layer relu2
I1109 10:51:42.796766 19888 net.cpp:84] Creating Layer relu2
I1109 10:51:42.796777 19888 net.cpp:406] relu2 <- conv2
I1109 10:51:42.796831 19888 net.cpp:367] relu2 -> conv2 (in-place)
I1109 10:51:42.797449 19888 net.cpp:122] Setting up relu2
I1109 10:51:42.797516 19888 net.cpp:129] Top shape: 50 256 27 27 (9331200)
I1109 10:51:42.797659 19888 net.cpp:137] Memory required for data: 293804400
I1109 10:51:42.797679 19888 layer_factory.hpp:77] Creating layer norm2
I1109 10:51:42.797787 19888 net.cpp:84] Creating Layer norm2
I1109 10:51:42.797798 19888 net.cpp:406] norm2 <- conv2
I1109 10:51:42.797818 19888 net.cpp:380] norm2 -> norm2
I1109 10:51:42.798369 19888 net.cpp:122] Setting up norm2
I1109 10:51:42.798398 19888 net.cpp:129] Top shape: 50 256 27 27 (9331200)
I1109 10:51:42.798406 19888 net.cpp:137] Memory required for data: 331129200
I1109 10:51:42.798416 19888 layer_factory.hpp:77] Creating layer pool2
I1109 10:51:42.798436 19888 net.cpp:84] Creating Layer pool2
I1109 10:51:42.798451 19888 net.cpp:406] pool2 <- norm2
I1109 10:51:42.798466 19888 net.cpp:380] pool2 -> pool2
I1109 10:51:42.798563 19888 net.cpp:122] Setting up pool2
I1109 10:51:42.798581 19888 net.cpp:129] Top shape: 50 256 13 13 (2163200)
I1109 10:51:42.798590 19888 net.cpp:137] Memory required for data: 339782000
I1109 10:51:42.798599 19888 layer_factory.hpp:77] Creating layer conv3
I1109 10:51:42.798630 19888 net.cpp:84] Creating Layer conv3
I1109 10:51:42.798642 19888 net.cpp:406] conv3 <- pool2
I1109 10:51:42.798665 19888 net.cpp:380] conv3 -> conv3
I1109 10:51:42.814767 19888 net.cpp:122] Setting up conv3
I1109 10:51:42.814801 19888 net.cpp:129] Top shape: 50 384 13 13 (3244800)
I1109 10:51:42.814806 19888 net.cpp:137] Memory required for data: 352761200
I1109 10:51:42.814831 19888 layer_factory.hpp:77] Creating layer relu3
I1109 10:51:42.814846 19888 net.cpp:84] Creating Layer relu3
I1109 10:51:42.814852 19888 net.cpp:406] relu3 <- conv3
I1109 10:51:42.814862 19888 net.cpp:367] relu3 -> conv3 (in-place)
I1109 10:51:42.815505 19888 net.cpp:122] Setting up relu3
I1109 10:51:42.815520 19888 net.cpp:129] Top shape: 50 384 13 13 (3244800)
I1109 10:51:42.815524 19888 net.cpp:137] Memory required for data: 365740400
I1109 10:51:42.815528 19888 layer_factory.hpp:77] Creating layer conv4
I1109 10:51:42.815546 19888 net.cpp:84] Creating Layer conv4
I1109 10:51:42.815556 19888 net.cpp:406] conv4 <- conv3
I1109 10:51:42.815565 19888 net.cpp:380] conv4 -> conv4
I1109 10:51:42.828582 19888 net.cpp:122] Setting up conv4
I1109 10:51:42.828627 19888 net.cpp:129] Top shape: 50 384 13 13 (3244800)
I1109 10:51:42.828635 19888 net.cpp:137] Memory required for data: 378719600
I1109 10:51:42.828655 19888 layer_factory.hpp:77] Creating layer relu4
I1109 10:51:42.828670 19888 net.cpp:84] Creating Layer relu4
I1109 10:51:42.828676 19888 net.cpp:406] relu4 <- conv4
I1109 10:51:42.828687 19888 net.cpp:367] relu4 -> conv4 (in-place)
I1109 10:51:42.829411 19888 net.cpp:122] Setting up relu4
I1109 10:51:42.829432 19888 net.cpp:129] Top shape: 50 384 13 13 (3244800)
I1109 10:51:42.829440 19888 net.cpp:137] Memory required for data: 391698800
I1109 10:51:42.829445 19888 layer_factory.hpp:77] Creating layer conv5
I1109 10:51:42.829465 19888 net.cpp:84] Creating Layer conv5
I1109 10:51:42.829470 19888 net.cpp:406] conv5 <- conv4
I1109 10:51:42.829480 19888 net.cpp:380] conv5 -> conv5
I1109 10:51:42.839920 19888 net.cpp:122] Setting up conv5
I1109 10:51:42.839964 19888 net.cpp:129] Top shape: 50 256 13 13 (2163200)
I1109 10:51:42.839969 19888 net.cpp:137] Memory required for data: 400351600
I1109 10:51:42.839993 19888 layer_factory.hpp:77] Creating layer relu5
I1109 10:51:42.840008 19888 net.cpp:84] Creating Layer relu5
I1109 10:51:42.840014 19888 net.cpp:406] relu5 <- conv5
I1109 10:51:42.840024 19888 net.cpp:367] relu5 -> conv5 (in-place)
I1109 10:51:42.840651 19888 net.cpp:122] Setting up relu5
I1109 10:51:42.840663 19888 net.cpp:129] Top shape: 50 256 13 13 (2163200)
I1109 10:51:42.840668 19888 net.cpp:137] Memory required for data: 409004400
I1109 10:51:42.840673 19888 layer_factory.hpp:77] Creating layer pool5
I1109 10:51:42.840687 19888 net.cpp:84] Creating Layer pool5
I1109 10:51:42.840692 19888 net.cpp:406] pool5 <- conv5
I1109 10:51:42.840701 19888 net.cpp:380] pool5 -> pool5
I1109 10:51:42.840761 19888 net.cpp:122] Setting up pool5
I1109 10:51:42.840768 19888 net.cpp:129] Top shape: 50 256 6 6 (460800)
I1109 10:51:42.840773 19888 net.cpp:137] Memory required for data: 410847600
I1109 10:51:42.840777 19888 layer_factory.hpp:77] Creating layer fc6
I1109 10:51:42.840788 19888 net.cpp:84] Creating Layer fc6
I1109 10:51:42.840792 19888 net.cpp:406] fc6 <- pool5
I1109 10:51:42.840801 19888 net.cpp:380] fc6 -> fc6
I1109 10:51:43.385159 19888 net.cpp:122] Setting up fc6
I1109 10:51:43.385215 19888 net.cpp:129] Top shape: 50 4096 (204800)
I1109 10:51:43.385221 19888 net.cpp:137] Memory required for data: 411666800
I1109 10:51:43.385237 19888 layer_factory.hpp:77] Creating layer relu6
I1109 10:51:43.385252 19888 net.cpp:84] Creating Layer relu6
I1109 10:51:43.385259 19888 net.cpp:406] relu6 <- fc6
I1109 10:51:43.385269 19888 net.cpp:367] relu6 -> fc6 (in-place)
I1109 10:51:43.385584 19888 net.cpp:122] Setting up relu6
I1109 10:51:43.385594 19888 net.cpp:129] Top shape: 50 4096 (204800)
I1109 10:51:43.385598 19888 net.cpp:137] Memory required for data: 412486000
I1109 10:51:43.385602 19888 layer_factory.hpp:77] Creating layer drop6
I1109 10:51:43.385612 19888 net.cpp:84] Creating Layer drop6
I1109 10:51:43.385617 19888 net.cpp:406] drop6 <- fc6
I1109 10:51:43.385622 19888 net.cpp:367] drop6 -> fc6 (in-place)
I1109 10:51:43.385653 19888 net.cpp:122] Setting up drop6
I1109 10:51:43.385659 19888 net.cpp:129] Top shape: 50 4096 (204800)
I1109 10:51:43.385663 19888 net.cpp:137] Memory required for data: 413305200
I1109 10:51:43.385668 19888 layer_factory.hpp:77] Creating layer fc7
I1109 10:51:43.385677 19888 net.cpp:84] Creating Layer fc7
I1109 10:51:43.385681 19888 net.cpp:406] fc7 <- fc6
I1109 10:51:43.385689 19888 net.cpp:380] fc7 -> fc7
I1109 10:51:43.644870 19888 net.cpp:122] Setting up fc7
I1109 10:51:43.644920 19888 net.cpp:129] Top shape: 50 4096 (204800)
I1109 10:51:43.644927 19888 net.cpp:137] Memory required for data: 414124400
I1109 10:51:43.644942 19888 layer_factory.hpp:77] Creating layer relu7
I1109 10:51:43.644959 19888 net.cpp:84] Creating Layer relu7
I1109 10:51:43.644966 19888 net.cpp:406] relu7 <- fc7
I1109 10:51:43.644979 19888 net.cpp:367] relu7 -> fc7 (in-place)
I1109 10:51:43.645308 19888 net.cpp:122] Setting up relu7
I1109 10:51:43.645320 19888 net.cpp:129] Top shape: 50 4096 (204800)
I1109 10:51:43.645325 19888 net.cpp:137] Memory required for data: 414943600
I1109 10:51:43.645329 19888 layer_factory.hpp:77] Creating layer drop7
I1109 10:51:43.645339 19888 net.cpp:84] Creating Layer drop7
I1109 10:51:43.645344 19888 net.cpp:406] drop7 <- fc7
I1109 10:51:43.645351 19888 net.cpp:367] drop7 -> fc7 (in-place)
I1109 10:51:43.645385 19888 net.cpp:122] Setting up drop7
I1109 10:51:43.645395 19888 net.cpp:129] Top shape: 50 4096 (204800)
I1109 10:51:43.645401 19888 net.cpp:137] Memory required for data: 415762800
I1109 10:51:43.645404 19888 layer_factory.hpp:77] Creating layer my-fc8
I1109 10:51:43.645416 19888 net.cpp:84] Creating Layer my-fc8
I1109 10:51:43.645421 19888 net.cpp:406] my-fc8 <- fc7
I1109 10:51:43.645428 19888 net.cpp:380] my-fc8 -> my-fc8
I1109 10:51:43.658032 19888 net.cpp:122] Setting up my-fc8
I1109 10:51:43.658098 19888 net.cpp:129] Top shape: 50 196 (9800)
I1109 10:51:43.658104 19888 net.cpp:137] Memory required for data: 415802000
I1109 10:51:43.658121 19888 layer_factory.hpp:77] Creating layer my-fc8_my-fc8_0_split
I1109 10:51:43.658136 19888 net.cpp:84] Creating Layer my-fc8_my-fc8_0_split
I1109 10:51:43.658143 19888 net.cpp:406] my-fc8_my-fc8_0_split <- my-fc8
I1109 10:51:43.658154 19888 net.cpp:380] my-fc8_my-fc8_0_split -> my-fc8_my-fc8_0_split_0
I1109 10:51:43.658166 19888 net.cpp:380] my-fc8_my-fc8_0_split -> my-fc8_my-fc8_0_split_1
I1109 10:51:43.658216 19888 net.cpp:122] Setting up my-fc8_my-fc8_0_split
I1109 10:51:43.658226 19888 net.cpp:129] Top shape: 50 196 (9800)
I1109 10:51:43.658231 19888 net.cpp:129] Top shape: 50 196 (9800)
I1109 10:51:43.658236 19888 net.cpp:137] Memory required for data: 415880400
I1109 10:51:43.658239 19888 layer_factory.hpp:77] Creating layer accuracy
I1109 10:51:43.658248 19888 net.cpp:84] Creating Layer accuracy
I1109 10:51:43.658252 19888 net.cpp:406] accuracy <- my-fc8_my-fc8_0_split_0
I1109 10:51:43.658258 19888 net.cpp:406] accuracy <- label_data_1_split_0
I1109 10:51:43.658265 19888 net.cpp:380] accuracy -> accuracy
…
